…
&lt;p&gt;근데 어차피 16이나 19나 conv5-3까지의 구조가 동일하므로 둘다 써도 무방하다.&lt;/p&gt;

&lt;p&gt;VGG16의 원래 구조를 찍어보면, &lt;code&gt;block5_conv3&lt;/code&gt;의 컨볼루션 레이어의 Output Shape이 14 x 14임을 확인할 수 있다. 처음에 input shape를 224, 224로 지정하지 않으면 conv5-3의 사이즈가 14 x 14로 떨어지지 않으므로 주의하자.&lt;/p&gt;
&lt;pre&gt;&lt;code&gt;### vgg16 model architecture
    _________________________________________________________________
    Layer (type)                 Output Shape              Param #   
    =================================================================
    ...      
    _________________________________________________________________
    block5_conv1 (Conv2D)        (None, 14, 14, 512)       2359808   
    _________________________________________________________________
    block5_conv2 (Conv2D)        (None, 14, 14, 512)       2359808   
    _________________________________________________________________
    block5_conv3 (Conv2D)        (None, 14, 14, 512)       2359808   
    _________________________________________________________________
    block5_pool (MaxPooling2D)   (None, 7, 7, 512)         0         
    _________________________________________________________________
    flatten_1 (Flatten)          (None, 25088)             0         
    _________________________________________________________________
    dense_1 (Dense)              (None, 4096)              102764544 
    _________________________________________________________________
    dropout_1 (Dropout)          (None, 4096)              0         
    _________________________________________________________________
    dense_2 (Dense)              (None, 4096)              16781312  
    _________________________________________________________________
    dropout_2 (Dropout)          (None, 4096)              0         
    _________________________________________________________________
    dense_3 (Dense)              (None, 5)                 20485     
    =================================================================
    Total params: 134,281,029
    Trainable params: 119,566,341
    Non-trainable params: 14,714,688
    _________________________________________________________________
&lt;/code&gt;&lt;/pre&gt;

&lt;p&gt;CAM을 얻기 위해서 논문에서는 다음과 같이 모델 아키텍쳐를 수정한다.&lt;/p&gt;
&lt;ol&gt;
  &lt;li&gt;conv5-3 이후의 레이어는 사용하지 않는다.&lt;/li&gt;
  &lt;li&gt;conv5-3 이후에 filter 크기가 3x3, stride 1, pad 1, channel이 1024인 컨볼루션 레이어를 더한다.&lt;/li&gt;
…
